LSTM_EarthQuake_model_v3.pth (torch, 453746 bytes, 20 tensors)

weight_ih_l0 f4 [220, 1]
000000 38 fe 0d 3d e3 d1 78 3d db 80 c3 3d 67 fa 6a bd
       0.03466627 0.06074704 0.095460616 -0.05736771
000010 66 9c 9c bd e8 92 62 3d 3e 92 07 bd 02 33 12 3d
       -0.07647018 0.055315882 -0.03309845 0.035693176
000020 43 cf e1 bd 0d 57 59 3d 28 8b 1e 3d 0a 32 d5 3d
       -0.1102586 0.053061534 0.03870693 0.10409935
000030 91 88 b5 bd 71 15 d8 3d 1c 35 35 3d 1e 57 4c bd
       -0.088639386 0.105509646 0.044240102 -0.04988777
000040 88 7b ed bd 10 0e e9 3d 8a 8f b1 bb 0b d7 48 3d
       -0.11595827 0.11379635 -0.0054187225 0.049033206
000050 41 e2 a5 bd 85 4b 2e 3d d3 ef 9e 3d 0c 8e c7 bd
       -0.08099795 0.04255249 0.077605866 -0.0974389
000060 3c 21 17 3d 36 a4 e3 3d fe ca d5 3d 79 f3 a7 bd
       0.03689693 0.11115305 0.10439108 -0.082007356
000070 85 81 c0 bc fd bb 2a bd 71 6b d1 bd 4b 05 03 3d
       -0.02349926 -0.041683186 -0.10225571 0.03198747
000080 26 83 b9 bc d2 4a 01 3d ca 98 c8 3d b4 42 22 bd
       -0.022645544 0.031565495 0.09794767 -0.039614394
000090 a4 32 1d 3e 89 ab 08 3e b0 fa 37 3c 02 0e 52 3c
       0.15351349 0.13346685 0.011229202 0.012820723
0000a0 9b f6 6c bd 84 79 45 3d 02 0e 43 bd 18 5a 82 3c
       -0.05785237 0.04821159 -0.04762078 0.0159121
0000b0 6a a1 9d 3d 27 00 c3 3d 35 4a 8e 3d f1 10 60 bd
       0.07696803 0.095215134 0.069477476 -0.054703657
0000c0 b1 c1 3a 3d ab d3 ee 3d 6f 8b 68 3c 4e 42 41 3d
       0.045594875 0.11661466 0.0141934 0.047182374
0000d0 33 b8 95 3c 2e b9 fc 3d 4d 00 51 bd f6 39 a1 bc
       0.01827631 0.12340008 -0.051025677 -0.019680958
0000e0 a5 79 b3 bd 6c 12 31 bd 10 24 9c 3d 85 ca da bd
       -0.08763436 -0.04323046 0.07624066 -0.10683159
0000f0 92 e4 dc 3c bd 1f 0e bd a5 b3 20 3b 13 e9 13 3d
       0.02696446 -0.034698237 0.002452114 0.03611095
000100 a4 1c b8 3d b6 46 13 3e d6 fe 00 3e cd f3 af bd
       0.08989838 0.14382443 0.12597212 -0.08591423
000110 1e cc 98 bd f1 d9 ea bd 69 50 52 bd c7 22 ec 3d
       -0.07460807 -0.1146735 -0.051346216 0.11530071
000120 40 78 be bd 5f 4f 42 bc 8a c0 a9 3c 03 80 94 bd
       -0.093002796 -0.011859744 0.020721693 -0.07250979
000130 88 95 3d 3d 7c be 03 be e4 94 69 3d a2 d6 ee bd
       0.046285182 -0.12865633 0.05702676 -0.11662032
000140 07 30 5d 3c 5e 43 47 3c fc 52 47 bd f3 5b be 3d
       0.01350022 0.012162058 -0.048663124 0.09294882
000150 d3 e4 a3 bd 12 eb ce 3d a8 56 1a 3b 0f ba 64 3d
       -0.08002629 0.1010343 0.0023550186 0.0558415
000160 15 58 a8 3d 0f 41 6a 3d 03 ee 0e bc 84 b2 43 3d
       0.08219925 0.05719095 -0.008723739 0.047777668
000170 d4 5f a0 3c 2d f7 a0 bd a2 ce 2b 3d ce b2 ed bc
       0.019576944 -0.07859645 0.041945107 -0.029015925
000180 46 f0 dd 3d 87 1e c3 3d 80 b3 00 3d 1f cd 0a 3e
       0.10836844 0.09527307 0.031421185 0.1355481
000190 06 75 ab 3c 08 67 b8 3d e9 5a d0 bd 16 76 9e 3d
       0.020929825 0.09004027 -0.1017359 0.07737367
0001a0 7f 67 33 bd 77 21 e8 bb 2f 03 92 bb f6 19 17 3e
       -0.043799873 -0.0070840674 -0.004455946 0.14755997
0001b0 6d a2 c1 bd 1e c5 7c 3d 31 68 d1 bd 14 c4 95 bd
       -0.094548084 0.061711423 -0.10224951 -0.073127896
0001c0 89 36 90 bc a1 79 8f 3d 7e d1 fc 3d 07 e6 84 bd
       -0.01760413 0.07005621 0.12344645 -0.06489187
0001d0 ae 7a ae bd 1d c3 54 bc 79 37 c0 3d f1 c7 9d bd
       -0.08519493 -0.012985972 0.093855806 -0.077041514
0001e0 a1 80 6c 3d ed da 02 be 1e f1 12 be 50 a7 50 bb
       0.057739858 -0.12778826 -0.14349791 -0.0031838007
0001f0 03 28 ee bd 37 61 be bd f7 ee 9f bd 45 11 ad bc
       -0.116287254 -0.09295886 -0.07809251 -0.021126399
000200 b3 a5 8d 3c 5e 0d e3 bd b1 e3 f8 3b e6 4d 84 3d
       0.017290926 -0.11086534 0.0075955023 0.064601704
000210 f0 c8 4e bd c5 03 db bd 29 dc 3e bd 5d 59 23 bd
       -0.050484598 -0.10694078 -0.04659668 -0.039880145
000220 55 e6 67 bd 75 d4 bc bc 8d b8 5c bd 8e 2b f7 3a
       -0.056616146 -0.023050526 -0.05388694 0.0018857585
000230 1e 20 fd 3d af d2 0d 3d bd 0a 43 bd 4a b9 d2 3d
       0.123596415 0.03462475 -0.047617663 0.10289247
000240 96 b4 07 bb 82 73 09 3e fd f1 12 3e 1e d0 e5 bd
       -0.0020707003 0.13422969 0.14350124 -0.11221336
000250 07 7e b5 3d 40 ca cd bc 9c 2b d2 3d b6 57 00 3e
       0.088619284 -0.025120854 0.10262224 0.12533459
000260 b1 d4 3a bd 10 70 e6 bd da 5f 88 3d 90 a8 23 3e
       -0.045612995 -0.11251843 0.06658907 0.1598227
000270 63 87 fa 3d 62 dc 42 3c 73 72 a5 bb c0 e2 8f 3c
       0.12232854 0.011893364 -0.005049044 0.017564178
000280 f0 db 4c bd c5 4e e9 bd 11 21 0e be a4 fa f0 bd
       -0.050014436 -0.11391977 -0.13879801 -0.11766556
000290 9a 04 c3 bd 7f bc 86 3d 79 ed 0d 3e 1c 40 31 bd
       -0.09522362 0.065789215 0.1386012 -0.04327403
0002a0 56 80 55 3d 34 b4 14 3e da 67 6e 3d 02 ae 5e bd
       0.052124344 0.14521867 0.05820451 -0.054365166
0002b0 38 fa 8f 3d 2b dd 9c 3d 79 40 a0 3d 5a f9 c1 3d
       0.07030147 0.07659372 0.07824797 0.09471388
0002c0 3b 3f 63 3d 55 84 a7 bd d6 eb 98 3d d0 44 24 bd
       0.055480223 -0.08179537 0.07466857 -0.040104687
0002d0 d9 94 d7 3d 90 eb ef bd 8f 8d 0e bd d5 c6 38 bd
       0.10526437 -0.11714852 -0.03480297 -0.045111496
0002e0 a8 fd 1e 3c 91 7f 37 bd cb 82 18 3d f7 01 d1 bd
       0.009704031 -0.04479939 0.03723411 -0.10205453
0002f0 22 ee 94 3d 13 1e f9 3c 6f 7f f8 3d 01 b0 b4 3d
       0.07271983 0.030409848 0.12133681 0.088226326
000300 ec 5f d1 3d d3 23 cf bd 90 09 00 3d 5a f4 ff 3c
       0.10223374 -0.10114255 0.03125912 0.031244446
000310 da e4 3f bd c7 d9 e0 3c ef 3e 2c bd 74 e2 39 bd
       -0.04684911 0.027447594 -0.042052206 -0.04538198
000320 15 f3 94 3d 51 85 d6 3d 5a 5d 96 bd e9 cc 0c 3d
       0.07272927 0.10474647 -0.07342024 0.034375105
000330 ab 0a 21 bd 0d 2b ac bd 5f 16 46 bd 6d 04 98 3c
       -0.039316814 -0.08406649 -0.04836118 0.018556798
000340 b4 62 5e 3d 62 ba 03 3e e9 b8 b8 3d fb 82 32 3d
       0.05429335 0.12864068 0.09019644 0.043581944
000350 da 06 a0 bd a0 b6 c8 3d b2 5c fa 3d 4e 9f ef 3d
       -0.07813807 0.09800458 0.122247115 0.11700307
000360 aa 56 a0 bc 47 98 00 3e 71 fc 23 bd 6e bd 3f bc
       -0.019572575 0.12558089 -0.04003567 -0.011702878

weight_hh_l0 f4 [220, 55]
000000 4a fb 9b 3d 3d e8 07 3c 9a 43 12 3d 71 6d 7d 3d
       0.07616289 0.008295116 0.035709 0.06187195
000010 39 93 20 bc 56 af 84 3d 02 22 97 3d fd 7f bd bd
       -0.009800726 0.06478755 0.07379533 -0.092529275
000020 99 08 f6 bc ac 54 b6 3d 76 8d 07 3e 70 a0 5f bd
       -0.030033397 0.08902869 0.13237557 -0.054596364
000030 26 9a a7 bd 15 1c 0c bd 24 47 ca bd 2d 89 e3 bc
       -0.08183698 -0.03420647 -0.0987685 -0.027775371
000040 97 1a c9 bc fc 56 67 3d b1 ae fe 3c 88 eb ec bd
       -0.024548812 0.05647944 0.031089159 -0.115683615
000050 76 7f 38 3d 39 33 06 3e 24 19 b6 3d 47 8b d9 bd
       0.04504343 0.13105477 0.08891514 -0.10622268
000060 24 41 9f bd 2a ea 6b 3d 75 d1 c2 3d 1b ee 56 bb
       -0.077760965 0.057596363 0.09512607 -0.003279573
000070 b5 e9 0c 3e 35 cb 8c bc ca 41 af bd 2a 9f 02 3e
       0.13761027 -0.01718674 -0.0855747 0.12756029
000080 f0 18 a7 3d 7e 8c ef 3d 4f cb e1 3d 9b 0c c2 bd
       0.08159053 0.11696719 0.11025106 -0.094750606
000090 9a 19 09 3d 63 e8 71 bd d0 dd d8 3c 77 4d 04 3c
       0.03347168 -0.059059512 0.026472956 0.00807511
0000a0 75 05 03 3d 13 ce b9 3d 2e 86 36 3c 60 0e 34 bd
       0.031987626 0.09072509 0.011140389 -0.04395902
0000b0 7e fc 81 3c 87 64 e9 3d 68 e7 28 bd f4 80 b8 bd
       0.015867468 0.11396127 -0.04123631 -0.09008971
0000c0 67 92 a8 bd 51 08 7b 3d 98 61 f5 3d 00 fd fc bc
       -0.08231049 0.061287228 0.11981505 -0.030882359
0000d0 9c b9 e9 ba 56 d5 e9 bb 3f 41 28 bc b2 cb 80 3d
       -0.0017831805 -0.0071360273 -0.010269462 0.06288852
0000e0 92 f5 93 3d 39 e2 84 bd ff 29 28 3d 66 99 f8 3d
       0.07224573 -0.06488461 0.041055676 0.121386334
0000f0 56 c3 a4 bd 72 72 06 bd a5 32 e7 bd 88 35 83 3c
       -0.0804507 -0.032823987 -0.112889566 0.016016737
000100 e2 be 02 3d c9 62 bd 3d c6 4c 32 3d f9 f4 85 3d
       0.03192032 0.092473574 0.043530248 0.065408655
000110 c5 d3 59 3c c6 7e 4d bd 64 ee bc bd dd c1 1c bd
       0.013295119 -0.05016973 -0.09225157 -0.03827082
000120 d9 df e7 bd 1c 4d 69 bd 43 00 1d bd d5 c6 77 3d
       -0.113219924 -0.056958303 -0.038330328 0.060492355
000130 64 92 02 3c 99 dd a1 bd e2 eb b4 3c ba e8 ba 3d
       0.007969473 -0.079035945 0.022085134 0.0912642
000140 ac 9f 4f bd 0a 7f c1 bd 27 83 dc 3d 23 3a af bd
       -0.050689384 -0.09448059 0.10767203 -0.085560106
000150 43 e3 e4 3d bd a5 56 3d a6 5e a6 bd 63 f5 37 3d
       0.11176159 0.052404154 -0.081235215 0.044911753
000160 22 c3 b2 bd 36 67 08 3e d0 b2 92 3d 4a 5b fe ba
       -0.08728625 0.13320622 0.07163012 -0.0019405868
000170 f7 5b 9e bd 06 4d 88 bd 85 e1 57 bc f1 a0 12 bd
       -0.07732385 -0.06655316 -0.013176327 -0.035798017
000180 4d 3f e7 bd 28 93 01 bd 35 46 68 bd 6f 9b 17 bd
       -0.112913705 -0.03163448 -0.05670758 -0.037013467
000190 f2 06 9a bd cf 38 fb 3d 2b f3 b0 3d df f3 5d bd
       -0.07520856 0.12266695 0.086401306 -0.05418765
0001a0 5d 58 fb bc c5 2a f0 3d fe 10 f0 bd 32 f8 93 3d
       -0.030681783 0.11726908 -0.11721991 0.07225074
0001b0 c4 0f e4 bd 2f 25 96 bd b4 87 fa bc ca ac 02 bb
       -0.111358196 -0.07331311 -0.030582286 -0.0019939416
0001c0 af d8 af bb 37 a5 dc 3c de 8c 6c 3d e1 c0 61 bd
       -0.005366407 0.02693425 0.05775153 -0.055115584
0001d0 a4 a5 f9 bd bd 73 04 be 2e 17 04 be 4e 4d 8e bd
       -0.121897966 -0.12934776 -0.12899467 -0.069483384
0001e0 b7 4c 10 3c 4d 84 95 3d 43 f0 82 bd 70 6d d0 bc
       0.008807353 0.07300625 -0.063934825 -0.025442809
0001f0 b7 1f 0c 3e a2 ca 96 bd 05 6c 15 3b 33 38 a6 bd
       0.13683973 -0.07362868 0.002279998 -0.08116188
000200 7b 51 b5 3d d5 c3 ae 3d b6 64 f2 bc a9 57 d0 3d
       0.08853432 0.08533446 -0.029589038 0.1017297
000210 ff 21 af 3d 1b 1f 7d 3c 9c fd a0 3a e1 2d 5a bc
       0.08551406 0.015449311 0.0012282613 -0.013316602
000220 1e a2 06 be b5 3b 01 bd ba c9 78 bc 4e 7d ab 3d
       -0.1314778 -0.03155108 -0.015184814 0.08373509
000230 af 0a 10 3d 0f ed 56 3d 41 f7 82 bd 4c 4e f0 3d
       0.03516644 0.05247217 -0.06394816 0.11733684
000240 35 23 c6 3c bd 5d c1 3b 37 2f ba 3d 27 96 78 3d
       0.02418671 0.005901067 0.09091037 0.06069007
000250 3c e3 9f bd d1 a5 03 be a5 3b c5 bc ae 03 a1 bd
       -0.078070134 -0.12856223 -0.024076292 -0.0786203
000260 1b 26 d3 3d d6 8b 70 bc d2 a8 91 bb 7b 8d d1 3d
       0.103100024 -0.014681777 -0.004445174 0.102320634
000270 8b 0b 3d bd 42 15 83 bd 6a e1 c5 bd 8e 69 3c bd
       -0.046153586 -0.06400539 -0.09662135 -0.045999102
000280 b3 99 b5 bd a9 56 da bd a8 9e bf bd d1 c5 f8 3d
       -0.088672064 -0.1066106 -0.09356433 0.121471055
000290 ba ec e4 bd da 61 af bd 5d 40 60 bd 7d eb 6c bb
       -0.111779645 -0.085635856 -0.05474888 -0.0036151104
0002a0 40 b3 0b 3c 26 07 21 bc b5 7b db bd 82 c3 25 3d
       0.008526623 -0.0098283645 -0.107169546 0.040469654
0002b0 8a fc df bd 31 2f 8e 3d de ff 97 3d 96 2e f9 3d
       -0.1093684 0.06942595 0.0742185 0.12167089
0002c0 75 1e 02 be cd f2 bb bd dd 3b 88 3d d3 25 25 bd
       -0.12706931 -0.0917717 0.06652043 -0.040319275
0002d0 e8 8b ed bc f4 22 c2 3c 03 95 31 3d 97 ab 37 bd
       -0.028997377 0.023698308 0.043355 -0.044841375
0002e0 2d ac bc bc 25 c9 a6 3d bd 2b ec bc 27 a4 05 3d
       -0.023031319 0.08143834 -0.02882945 0.03262725
0002f0 2b 59 ca 3d c9 94 3c bc f8 88 6d 3d 43 ac dc bd
       0.09880289 -0.0115100825 0.05799195 -0.10775044
000300 07 4e f9 3d 36 52 51 bd d1 07 df bd 39 d8 1d 3c
       0.12173086 -0.051103793 -0.10890163 0.009634071
000310 0b 84 3d 3d e5 5c d1 3d 19 fe c0 bd bf 50 b7 3d
       0.046268504 0.10222796 -0.09423465 0.08950948
000320 88 a9 8b bd a7 98 93 bd 7f 5f a8 3d 3a 9b c3 3d
       -0.06819445 -0.072068505 0.082213394 0.095510915
000330 83 d5 a4 3d 4b ad 63 bb f6 c9 f8 3c a5 32 d5 3d
       0.08048537 -0.0034740742 0.03036974 0.1041005
000340 13 e5 d8 bd ad 1a c4 3d 75 03 25 3d 95 56 a3 bc
       -0.105905674 0.095754005 0.0402865 -0.019938746
000350 50 6d cd bd 70 f5 0a 3d e2 aa 5c 3d 9a eb ac 3d
       -0.10030615 0.033925474 0.053873904 0.08443375
000360 87 5b 85 3d 09 e5 8d 3c d4 dc 98 bd c8 de 15 bd
       0.06511598 0.017321127 -0.074639946 -0.036589414
000370 cb 4e d3 3c 31 51 b0 bd 23 41 98 3d 57 3a 9d bd
       0.025794407 -0.08609236 0.07434299 -0.07677143
000380 4d 11 97 3d e6 28 23 bd 44 71 4d 3d e0 09 14 3e
       0.07376347 -0.039833926 0.050156847 0.14456892
000390 9f ac de 3d aa 65 75 bd 6b ce 3a 3d 63 cd 1a bd
       0.108727686 -0.059911408 0.04560701 -0.03779353
0003a0 7b d9 df bd bc d2 c0 bd 66 73 23 bd 03 06 6f 3d
       -0.10930153 -0.094151944 -0.039904974 0.058355343
0003b0 a5 57 f0 3d 7c a1 9d bd 4e 04 cc bd f8 8c 16 3d
       0.11735467 -0.07696816 -0.099617586 0.036755532
0003c0 d5 12 8e bd c0 68 47 3c fe 28 12 bd 81 33 a7 3d
       -0.06937186 0.01217097 -0.035683624 0.081641205
0003d0 18 70 c0 bd 74 fe aa bc 22 d3 b8 bd 72 c0 ae 3d
       -0.0939638 -0.020873286 -0.090246454 0.085328
0003e0 46 93 07 3e a1 34 58 3d 96 80 77 bd c2 12 a2 bc
       0.13239774 0.052784566 -0.060425363 -0.019784335
0003f0 4e e0 ce 3d 45 18 10 bd c8 c1 88 3c b0 94 8e 3d
       0.101013765 -0.035179395 0.016693965 0.06961954

bias_ih_l0 f4 [220]
000000 32 46 dd bd b9 e8 f4 bd 94 06 b0 bd 04 e0 f7 3c
       -0.10804404 -0.11958451 -0.08595005 0.030258186
000010 c3 30 85 bd b7 a8 90 bd c8 fb 9c 3d eb a0 dd 3d
       -0.06503441 -0.0706343 0.07665211 0.10821708
000020 73 c1 20 3c 2b 74 84 bc 1a b7 d1 3c 11 34 84 3d
       0.009811747 -0.016168674 0.025600005 0.064552434
000030 36 12 a7 bd 11 6c d0 bd 55 d5 7f bc d2 88 f5 bc
       -0.0815777 -0.10176862 -0.015614827 -0.029972468
000040 0a 5f 7d 3c 57 7d 8f bd 87 66 6a bb e6 b7 3a 3d
       0.015464554 -0.070063286 -0.0035766677 0.045585535
000050 f4 ba 31 3d 54 3b 14 3d 4b 15 f7 bd a7 80 a8 3d
       0.043391183 0.036189392 -0.12064608 0.082276635
000060 d2 4b f5 bc 3f 14 f2 3d e8 55 19 bd ff d3 34 bd
       -0.02994338 0.11820268 -0.037435442 -0.044147488
000070 55 04 b8 3d d7 87 01 3e 4e 46 d4 bd ae 6b cf 3d
       0.08985201 0.12649475 -0.10364972 0.1012796
000080 b2 d4 fa 3d 97 e3 52 3d da d9 9e bd 1e 97 6a bd
       0.122476 0.051486578 -0.07756396 -0.057273023
000090 47 2e 43 bd 28 80 5a 3d f6 c8 32 3c a2 c4 84 bd
       -0.047651555 0.053344876 0.010912171 -0.06482817
0000a0 c7 8e df bd 32 43 92 bd aa 67 99 3d 0d dc 0d 3d
       -0.109159045 -0.07141723 0.074904755 0.034633685
0000b0 23 97 93 3d 95 69 af 3d 58 51 ab bd db 9f a1 bd
       0.072065614 0.0856506 -0.083651245 -0.07891818
0000c0 e3 e0 b7 3d 3b 37 9a 3d 05 04 ec bd c0 91 5a bd
       0.089784406 0.075300656 -0.11524204 -0.053361654
0000d0 e1 23 88 bb 0e ad 53 3c 10 51 6c 3d f1 e2 8a 3d
       -0.0041546677 0.012919677 0.057694495 0.06781567
0000e0 b5 df 77 3d b2 9a bd bd fa 9d 84 bd d7 b0 ce bc
       0.060516078 -0.092580214 -0.06475444 -0.025230808
0000f0 09 d2 97 3d 56 85 0b bd 43 56 12 3e 9e 05 c5 3d
       0.07413108 -0.034062706 0.14290719 0.09620212
000100 c7 80 da bb cb b3 89 3d a0 20 31 bd c3 63 96 3d
       -0.0066681835 0.06723746 -0.043244004 0.07343247
000110 bb d7 95 bd 58 18 e1 bd c1 3c c0 3d f5 aa c4 bd
       -0.07316538 -0.10990971 0.09386588 -0.0960292
000120 9a 4b 65 3d 65 f2 d1 bb c3 96 52 bd b3 25 19 bd
       0.055980302 -0.0064070695 -0.05141331 -0.03738947
000130 5b 83 26 bd 3b ee c6 3d 8f b0 00 3e 2b f6 ed bd
       -0.040652614 0.097134076 0.12567352 -0.116192184
000140 55 4a 88 bd 9a 2f 5e bd be 60 d7 3d 5e 31 b7 bd
       -0.06654803 -0.054244615 0.10516499 -0.08944963
000150 13 3c c1 3c 2a b0 07 be b7 d2 87 3d e7 7d 49 3d
       0.023588216 -0.13250795 0.066319875 0.049192335
000160 a3 f0 07 3d 6f ef 00 bd 40 a7 31 3c e5 5e cc bd
       0.033188473 -0.03147834 0.010843098 -0.09979037
000170 db 88 9f ba 67 9e 8d bd c4 14 62 bd 16 a5 b4 bd
       -0.0012171523 -0.069149785 -0.055195585 -0.0882055
000180 04 26 2f bc 43 a2 b1 3d 21 e4 9a 3d 7d 75 e4 3c
       -0.010690216 0.08673527 0.075630434 0.027888054
000190 21 fd cc bd 8f 7d fa bc 4a 7d 15 3d cf d9 7f bc
       -0.10009218 -0.03057745 0.036496438 -0.015615894
0001a0 1b 0b 08 3e 76 d4 a1 bd f0 c7 6c 3c ac b3 fa bd
       0.13285486 -0.07901852 0.014451966 -0.12241301
0001b0 5d 7e 07 3e 1f 81 71 3c 0d 22 71 3d e6 dc b6 3d
       0.13231798 0.0147402575 0.058870364 0.08928852
0001c0 f6 98 df 3d c7 53 1c bd 3c 0f dd 3d 59 33 e9 3d
       0.10917847 -0.038165834 0.10793921 0.11386747
0001d0 72 9f fc 3d 32 a3 83 3d ec 7e 53 bd 54 a9 b2 3c
       0.12335099 0.064276114 -0.051634714 0.021809258
0001e0 09 6e 45 3d 90 35 03 be 9f 85 7c bc 98 cf e4 3c
       0.04820064 -0.12813401 -0.015412717 0.02793102
0001f0 e8 26 34 bd cf 99 14 bd fc a2 e5 bd 73 21 ec 3d
       -0.043982416 -0.036279496 -0.112127274 0.115298174
000200 db 84 bf 3d 6a f2 c0 bd 32 42 ed bd da c8 04 bd
       0.09351512 -0.09421237 -0.115848914 -0.03241811
000210 04 0e 81 bb a8 fd bb bd f0 26 cf bd d3 12 73 bd
       -0.0039384384 -0.091792405 -0.101148486 -0.059344124
000220 11 72 43 3c b6 da 12 3e d9 d0 d2 ba 61 85 27 bd
       0.011929051 0.14341244 -0.001608397 -0.040898684
000230 a5 e2 99 3c ee c0 94 3d df f0 f6 bd 32 9a f0 3d
       0.01878483 0.07263361 -0.12057661 0.117481604
000240 64 e1 a5 3d 02 67 9e 3d 6b 5b 10 3c be 5d ae 3d
       0.080996305 0.07734491 0.008810858 0.08513974
000250 98 93 17 3d 83 96 a3 3c be 97 39 3d af 6d fd 3d
       0.03700599 0.01996923 0.04531073 0.12374436
000260 8a c7 85 3c 03 8c 03 3e 0e 99 c6 3d 7d 9e f1 3d
       0.0163305 0.12846379 0.096971616 0.11797807
000270 27 9d ac bc b1 38 51 bd 58 7c cf 3c a0 83 d6 bd
       -0.02107103 -0.051079456 0.025327846 -0.10474324
000280 80 4c d1 3d 14 e9 90 bd e0 2d b1 bc f4 f7 8d bc
       0.10219669 -0.07075706 -0.02162832 -0.017330147
000290 4f 23 b0 bc 4a 09 13 bd 42 26 cd 3d 20 b0 60 3d
       -0.021501211 -0.03589753 0.10017063 0.054855466
0002a0 ce 93 98 3d 69 11 b1 3d b9 20 d6 bc c2 57 ee bd
       0.074500665 0.08645899 -0.02613865 -0.11637832
0002b0 0e 3f 9f 3c 9d c1 0a bb 84 a7 f8 bb 1c 6d 9b 3c
       0.019439247 -0.0021172531 -0.007588329 0.018972926
0002c0 2e d2 ba 3d a0 46 91 bd 3a 85 35 bd 21 fb c3 bd
       0.0912212 -0.07093549 -0.044316508 -0.095693834
0002d0 d1 5b 24 3d 4c 3a a9 bd b1 83 e4 bd df a5 12 bd
       0.040126625 -0.08263072 -0.11157931 -0.03580272
0002e0 30 36 81 bc 7a d2 db bd 2a e7 95 bd a1 28 b7 3d
       -0.015772909 -0.107335046 -0.07319482 0.08943296
0002f0 e5 cd b7 bd ed 04 89 bd 4e e8 fe 3d 8f 5f 61 ba
       -0.08974818 -0.06690393 0.12446652 -0.0008597308
000300 d8 fa ec 3d 47 a2 5d bb bd 2f 67 bd 7e f3 a5 3d
       0.11571282 -0.0033818649 -0.05644201 0.08103083
000310 f2 3e 00 3e 10 71 84 bc bc 94 85 bd e4 a1 9e 3d
       0.12524012 -0.016167194 -0.065225095 0.07745722
000320 dc 12 99 3d 5f 89 87 3d f0 ad 3f bd 78 1f 8c bd
       0.074743 0.06617998 -0.04679674 -0.0684194
000330 56 b4 5c 3c 3e 4f 68 bc 98 55 fe 3d a3 9b b6 bd
       0.01347073 -0.014179049 0.124186695 -0.08916404
000340 b1 7e 00 be b2 ca 7b bd 1e 7d 0c 3e 53 09 2f 3e
       -0.12548329 -0.061472602 0.13719603 0.170934
000350 4d 20 a9 bd d2 02 6f bc af c5 0a 3e 98 c8 c4 3d
       -0.08258114 -0.014588075 0.13551973 0.09608573
000360 54 0f 33 bd 83 ce 01 3e f4 dc be bd b4 4d 67 bd
       -0.04371579 0.12676434 -0.09319487 -0.056470588

bias_hh_l0 f4 [220]
000000 70 27 f6 bc 3e 95 07 3e 6c cf 8f 3c 6f dc c6 bd
       -0.030048102 0.13240525 0.017554961 -0.09710013
000010 03 12 bf 3d c4 90 9d bd b8 62 0e bd 1c b9 06 3e
       0.09329607 -0.076936275 -0.034762114 0.13156551
000020 10 66 fa 3d 6e 7c 06 3e 4d 9d 0f 3e 2a 6f b1 bd
       0.12226498 0.13133404 0.14024849 -0.08663781
000030 46 3b 0c 3e 45 55 bc bd b3 05 49 3b 0f 44 60 bd
       0.13694486 -0.09195951 0.0030673563 -0.054752406
000040 e5 b3 03 3c e9 f4 b5 3d c7 24 4f bd 7b e5 86 bd
       0.008038496 0.088846035 -0.050572183 -0.06586739
000050 c0 70 ba 3d 64 21 9f bb 3f 35 cd bd 61 1d f5 3d
       0.091035366 -0.0048562754 -0.100199215 0.11968494
000060 0c 56 aa 3d 5b 89 f5 bd e4 2e 4e bd cf 1b da 3d
       0.083171934 -0.11989089 -0.050337687 0.10649835
000070 7f bf 08 be b5 31 58 3d 70 7d 9c 3d 2e e7 e4 3d
       -0.133543 0.05278178 0.07641113 0.111769065
000080 93 31 0e 3d 98 67 8d 3d 0e 5f c7 bc 80 a5 80 bd
       0.034715246 0.069045246 -0.024337318 -0.062815666
000090 4b dc 6a 3d 62 44 ae bd 94 33 44 3d db 82 a4 bd
       0.057338994 -0.08509137 0.04790075 -0.08032771
0000a0 d1 ab e6 bc ec 34 60 3d 40 fc d0 3d f0 39 a5 3d
       -0.0281581 0.05473797 0.10204363 0.08067691
0000b0 dc 85 ca b9 14 1b c8 3c 9a 81 c7 bc 93 e1 aa 3c
       -0.00038628175 0.024426974 -0.024353791 0.020859515
0000c0 5f 18 b1 bc 0b 97 c1 3c 0f 3d 35 bd 8a 70 05 3e
       -0.021618066 0.023631593 -0.044247683 0.13031211
0000d0 38 78 27 3d 21 1b d8 bd d4 d8 a3 bd 3b 7c a5 3d
       0.040886134 -0.105520494 -0.08000341 0.08080336
0000e0 a9 65 00 3e fe 6f a2 bd 2c 83 e1 bd 2a 8a b3 3d
       0.1253878 -0.07931517 -0.11011347 0.08766587
0000f0 1b 82 ca 3d 9a 86 84 bc 47 4c d5 3d ae 42 91 3d
       0.09888097 -0.016177464 0.104149394 0.07092796
000100 29 a9 66 3d 33 02 60 bd 0a f9 21 bd b0 e4 88 3d
       0.056313667 -0.054689597 -0.039544143 0.06684244
000110 a3 3b d3 3c b8 9a fc 3d b9 4c e8 3d ba bc de 3d
       0.025785273 0.12334198 0.11342759 0.108758405
000120 7b f4 92 3c 5c bd d3 3d a9 15 d0 3d 95 c6 eb bd
       0.017938843 0.10338852 0.10160381 -0.11512486
000130 10 b2 ba bc 09 79 97 3c e6 8e b3 3c d3 df b3 bd
       -0.022789985 0.018490331 0.021918725 -0.087829255
000140 e4 a3 05 3d ba 3c b4 3d c4 77 84 bd 5a 2d b5 bd
       0.032627 0.08800645 -0.06468156 -0.08846541
000150 3e 75 e2 3d d8 ea f1 3d 00 c5 fa bc 0f dd 91 bd
       0.110575184 0.11812371 -0.030611515 -0.07122242
000160 54 89 73 bc 87 ed b7 3d ba 67 8c bd 34 cf 89 bd
       -0.014864285 0.089808516 -0.06855722 -0.06728974
000170 05 04 f8 bd f1 c6 e9 3c d0 5e c0 bd e5 e7 d5 bc
       -0.12110142 0.028537245 -0.09393084 -0.026111552
000180 f7 30 fc bc ac 33 d9 3c 7d 3e ad 3d 4c b5 b3 3d
       -0.030785067 0.026513897 0.08459184 0.08774814
000190 e9 02 38 bc fc 4b d0 bd ce 89 8c 3d d5 65 b0 3d
       -0.011231163 -0.10170743 0.06862222 0.08613173
0001a0 7d 1f b0 3d e0 13 f5 3c 99 ec 63 bd 91 05 9e bd
       0.08599756 0.029916704 -0.05564556 -0.077159055
0001b0 12 80 9b bd 74 53 4e 3d ce d2 dc 3d 83 b9 31 3d
       -0.07592787 0.050372556 0.10782395 0.04338981
0001c0 ce 97 a2 bd 9c 5f ef 3d 69 3b 1b bd cc 7c 0a 3c
       -0.07939111 0.11688158 -0.037898455 0.008452605
0001d0 50 02 0c bd 19 c3 5d 3d ed e4 80 bd 22 38 ff bd
       -0.034181893 0.054141138 -0.06293664 -0.12461878
0001e0 f7 7a f9 3d 5d 96 88 bb b9 29 86 bd a2 18 c4 bd
       0.12181657 -0.0041683153 -0.06550927 -0.09575011
0001f0 aa c2 2c 3d 45 e8 05 3e 56 16 ea bd d1 57 d0 bd
       0.042177834 0.13076885 -0.114300415 -0.10173
000200 42 08 59 3d 36 cb d6 3c 8a af c7 bd da ac f5 3d
       0.05298639 0.026219945 -0.09750278 0.119958594
000210 9d b8 22 3d 0e 3d a9 3d fe 77 a5 3d f6 a9 e7 3d
       0.039726842 0.082635984 0.08079527 0.11311714
000220 fc c3 d3 3d 68 85 21 bd b3 93 e5 3d 24 b0 90 bb
       0.103401154 -0.039433867 0.11209812 -0.004415529
000230 2d 93 08 3e 5e 70 c6 3d 69 e6 30 bd f4 8d fd 3d
       0.13337393 0.09689401 -0.043188486 0.12380591
000240 a2 3b 23 3d e0 3c d4 bd 94 c9 ea bc 4b a7 0b be
       0.039851792 -0.103631735 -0.028660573 -0.13638036
000250 09 c9 dc 3d 98 fa 29 bc 43 55 84 3d 8b ff 5b 3c
       0.10780532 -0.010374688 0.06461575 0.013427625
000260 52 23 83 3c a4 25 b1 3c 2a b3 93 bd fd 15 82 3c
       0.016008053 0.021624394 -0.07211907 0.015879625
000270 aa 13 f7 3c 49 d1 af bd ea 81 9a 3d fa 87 80 bd
       0.030160744 -0.0858484 0.075443104 -0.062759355
000280 22 fc 19 bd 9b 74 f3 3d 7d c0 4c 3d 5d 37 b3 bd
       -0.03759397 0.11887475 0.04998826 -0.08750794
000290 23 12 02 bd e2 e5 2e bd f6 66 a6 3d fa ac 78 3c
       -0.031755578 -0.042699702 0.08125107 0.01517796
0002a0 d0 a1 bb 3d 5d 9d cd 3d 37 62 01 be ac 70 38 bc
       0.09161723 0.1003978 -0.12635122 -0.011257332
0002b0 48 d2 96 bb 4f b0 0f be 79 23 a5 38 73 2b d3 bd
       -0.004602704 -0.140321 7.8744204e-05 -0.10311022
0002c0 c1 d4 28 3d 06 ae e7 3d 98 5a d0 3d c1 8d 23 bd
       0.041218523 0.11312489 0.101735294 -0.03993011
0002d0 c5 9e 80 bd 29 fb 86 3d 5f ae ae bc cd 75 1a 3d
       -0.06280283 0.06590874 -0.021323381 0.03771
0002e0 e4 e0 0f bd e6 06 c3 bd af da 0b be 41 6c 00 3d
       -0.03512658 -0.095228 -0.1365764 0.03135324
0002f0 9e 23 00 be cb 6b 06 be 98 71 33 bd 7a d6 83 3d
       -0.12513587 -0.13127057 -0.043809503 0.064373925
000300 1c 7f 91 bd 00 d8 88 3d d9 a3 95 3d 07 63 01 3e
       -0.07104322 0.06681824 0.07306642 0.12635432
000310 47 4d ce bd 68 34 c6 3d 60 c6 cb 3d d0 eb 41 bd
       -0.10073333 0.096779644 0.099499464 -0.04734403
000320 4d eb da 3d 6d 94 6b 3d 73 d3 b1 3c 79 1c 02 3d
       0.10689411 0.057514597 0.021707272 0.031765435
000330 48 c3 09 be 4a bb bb bd 93 2b 1e bd 49 4b e0 3d
       -0.134534 -0.09166582 -0.038615774 0.109518595
000340 26 43 9b bc 24 7a aa bd 70 c9 00 bd 77 3c dc 3d
       -0.018952917 -0.08324078 -0.031442106 0.1075372
000350 98 b8 9c 3d 1c f8 d1 bc de 48 f5 bc 58 01 a3 3d
       0.07652396 -0.025631003 -0.029941972 0.07959241
000360 89 77 17 3c ca 70 17 bc 2d bb 10 3d c0 6c 2d 3d
       0.009244808 -0.0092432 0.035334755 0.04234004

weight_ih_l1 f4 [220, 55]
000000 4c e2 a1 bd 7d 35 18 bd ed 75 a0 3a 1e 21 bb 3d
       -0.07904491 -0.037160385 0.0012242176 0.09137176
000010 01 c6 fd 3d 80 3c 3e bc 2f 26 3a bd ef eb 64 bc
       0.12391282 -0.011611104 -0.04544657 -0.013972267
000020 a9 84 cc bd 79 1e ab bc ee 8b 6a bc 63 e1 9f 3d
       -0.099862404 -0.020888554 -0.014315588 0.07806661
000030 75 aa 89 3d e4 81 8a bd ac 53 ac bd db 93 c6 bd
       0.06721965 -0.06763056 -0.08414397 -0.0969617
000040 9f bd c2 3c 4f 0c 0c be 9f 1b e3 bc 2f 43 e8 3d
       0.023772059 -0.1367657 -0.027723132 0.11340939
000050 fd 86 a7 bd 69 78 ff 3d de bd 8e 3b f0 19 8b bd
       -0.08180044 0.12474138 0.00435613 -0.067920566
000060 35 53 27 3d 98 fa f9 3d 2b ff d1 3d 97 e6 46 bc
       0.040850837 0.12206 0.102537476 -0.012139938
000070 63 c6 5f 3c 7f d8 24 bd 17 10 15 bd e8 f9 ae 3d
       0.013658139 -0.04024553 -0.036392298 0.085437596
000080 4e 2d 45 bd 33 f3 c0 3d 62 30 16 bc 32 0b c2 bd
       -0.04813891 0.094213866 -0.009166809 -0.094747916
000090 b2 2f 76 3d 26 36 95 bd a6 b6 38 bd ae 25 a3 3d
       0.06010408 -0.072857186 -0.045096062 0.07966171
0000a0 c0 7c 99 3d 80 3e 71 bd 5f a6 fc bd a1 79 d1 bc
       0.07494497 -0.058897495 -0.1233642 -0.025570692
0000b0 45 f1 33 bd b5 0f e6 bc 2e 98 56 3d 09 a3 c5 3d
       -0.043931264 -0.028083662 0.052391224 0.09650237
0000c0 1a a2 e7 bc 21 ea 44 3b a8 b7 81 3b a1 27 d3 bc
       -0.028275538 0.0030046778 0.003958661 -0.025775732
0000d0 a1 12 69 bd b2 9a ba bd e6 ff 8b 3d 04 9c a7 3d
       -0.05690253 -0.09111537 0.06835918 0.081840545
0000e0 b1 02 12 3d 86 24 e8 3d f9 d2 07 bd 87 a8 96 bd
       0.035647098 0.11335091 -0.033160184 -0.07356363
0000f0 a5 f4 d1 3c 85 63 65 3b e5 37 e0 3c 04 85 00 3c
       0.02562935 0.0035001945 0.027370403 0.007844213
000100 d1 2f 09 bd ac 48 e7 bd 3c 2c fa 3d 89 f6 57 bd
       -0.033492867 -0.11293158 0.12215468 -0.05272535
000110 a5 d9 43 3d 2a 1a b6 3d 60 d8 d3 3c 7a a1 dc 3d
       0.047814984 0.08891709 0.025860012 0.10772987
000120 19 13 16 3d 69 d6 08 3e 21 cf bc bd 53 9e 39 3d
       0.036639307 0.13363041 -0.09219194 0.045317005
000130 27 6a 82 bd f6 8a 9f 3c 2a bf c2 bc 5d c4 d8 3b
       -0.06367903 0.019475441 -0.023772795 0.006615205
000140 af f6 ff 3d cf 96 c2 bd 75 93 5a 3c 2f a2 25 3d
       0.12498223 -0.09501421 0.013340821 0.040437873
000150 80 ad 4b 3d 41 31 56 bd 88 85 46 bd 13 68 d2 3c
       0.04972601 -0.052293066 -0.04846719 0.025684392
000160 4e 8e 0c 3e 1c 1e 2c 3c f4 af 5b 3d 8b 10 fc 3c
       0.1372616 0.0105052255 0.0536346 0.030769607
000170 d6 6d 57 3d 42 a6 03 3e bb 21 e1 3c 09 74 cd bd
       0.052594982 0.12856391 0.027481904 -0.100318976
000180 13 51 1c bc 9d 2c bd bd 8a 6d d7 3c b7 57 a0 3d
       -0.009540814 -0.09237025 0.02629735 0.0782923
000190 44 76 f4 3d 1c 81 91 3d f8 e2 53 bd 1b 51 0a 3e
       0.1193662 0.07104704 -0.051730126 0.13507502
0001a0 f0 af 1a bc 61 ed 47 3d fa 97 c8 bd 7c 23 b3 bd
       -0.009441361 0.048810367 -0.09794612 -0.087470025
0001b0 0e d7 ac 3d 44 bf d3 3b 10 f3 c1 3c b2 80 d0 3d
       0.08439456 0.0064620096 0.023675472 0.10180797
0001c0 df 39 ac ba 31 cc 08 3e 90 ae f2 3d 89 31 ec bd
       -0.0013139806 0.13359143 0.118497014 -0.115328856
0001d0 00 95 67 3b e1 57 10 3e 5a a2 97 3d dd 24 1c 3d
       0.0035336614 0.14096023 0.07404013 0.038121093
0001e0 25 59 46 bd bc ad 09 be df 1a fc bd 40 ba 97 bd
       -0.04842486 -0.1344518 -0.12309813 -0.07408571
0001f0 32 11 93 3c 93 42 8f 3d 40 62 b8 3c 8a b5 a6 bb
       0.017952535 0.0699512 0.022507787 -0.005087559
000200 e0 72 7e 3c 32 ff 9e 3d 91 2c 3c 3d 7f 01 f7 bc
       0.015530318 0.077635184 0.04594094 -0.03015208
000210 63 a4 f5 bd 11 c8 9b bd 86 01 84 3c 3c 74 fd 3d
       -0.11994245 -0.07606519 0.016114008 0.123756856
000220 4f 0c 7b 3d 8c 84 05 3e 4b c1 48 3d ab 44 0b 3c
       0.061291035 0.13038844 0.049012464 0.008500258
000230 38 5a a9 bd f7 7a e3 bd ae 7d 0a bc c5 9c 08 3e
       -0.08269161 -0.11107438 -0.008452816 0.13341053
000240 e7 2b be 3d 3d 3b 0f 3e e6 ff 56 3d 8c 8e 64 bc
       0.092857175 0.13987441 0.052490138 -0.013950001
000250 a7 b4 a4 bb 3d 76 79 bd 38 c9 cf bd a3 05 b1 bd
       -0.0050264183 -0.060903776 -0.10145801 -0.08643653
000260 35 df b1 bd 16 0a 80 3c b5 1e b5 bd 02 f7 b2 bb
       -0.086851515 0.01562981 -0.088437475 -0.0054615745
000270 43 e9 f6 3c 46 63 da bd 9e 62 c6 3d e1 28 fe 3d
       0.030140525 -0.10663466 0.096867785 0.12410141
000280 16 a4 2b 3d 0b 7b 23 3c fa c3 ed 3d 34 5d f3 3d
       0.04190453 0.009978066 0.11609645 0.118830115
000290 12 95 ba 3d a1 e7 0a 3e be 73 bb 3c 5d a7 39 bc
       0.09110464 0.13564922 0.022882339 -0.011331406
0002a0 2a 2c 79 3d d0 24 40 3d 73 45 ea 3d 1e ea 29 3c
       0.060833134 0.046910107 0.11439028 0.010370759
0002b0 8b da c7 3c f4 de de 3c c9 2d 10 be d7 43 c9 3d
       0.024396202 0.027205922 -0.14079966 0.098273925
0002c0 3c 60 57 3d f1 6d 04 be df 30 bc bd da 5a 71 3d
       0.05258201 -0.12932564 -0.09189009 0.058924533
0002d0 f2 a8 a5 3d 25 55 b3 3d b3 69 7a bd 4d b6 03 3c
       0.080888644 0.087564744 -0.06113596 0.008039069
0002e0 62 89 03 be 10 a7 af bc f6 52 13 3d 2e 68 a7 3c
       -0.12845376 -0.021441966 0.03596779 0.020435419
0002f0 f2 31 cb bd dd ae 38 bd 16 eb b7 bd 04 da 5d 3d
       -0.09921636 -0.045088638 -0.08980386 0.054162994
000300 10 3b db bd 04 63 03 be cc e3 04 be d2 dd 8a bd
       -0.10704625 -0.1283074 -0.12977523 -0.0678059
000310 c5 2d f3 3b 37 06 02 be b9 70 a1 bd 7f 27 0c bd
       0.0074212276 -0.12697683 -0.07882828 -0.034217354
000320 7f 3e 85 3d da 8c 1c 3e 2e 6c 3f 3c 53 5a c4 3d
       0.06506061 0.15288106 0.011683507 0.095875405
000330 ac 79 e3 3d 61 d4 f5 bc 2d 2d d2 bd ed 22 03 3e
       0.111071914 -0.030008497 -0.10262523 0.12806292
000340 55 0e ac 3d 0e 7b 07 3e f7 61 0c 3c 1e 6e 43 3d
       0.08401171 0.13230535 0.0085682785 0.047712438
000350 df dc b7 bd 18 55 f5 bd 6a 43 06 3d 3c 85 eb bd
       -0.08977675 -0.11979121 0.032779135 -0.11500022
000360 56 94 da 3d 5d 93 a1 3d e4 2c b8 ba 94 ff e9 bd
       0.10672824 0.078894354 -0.0014051464 -0.11425701
000370 5e b4 b5 3d c8 a3 a7 bc 8d ec c0 bd 8d df d5 bd
       0.08872293 -0.02046384 -0.094201185 -0.104430296
000380 05 70 16 bd bd c1 03 bc 51 2d ad bd ec 15 e2 bd
       -0.036727924 -0.008041796 -0.08455909 -0.110393375
000390 62 8f 65 bc eb eb b3 3d 02 f6 b1 3c 72 30 d2 3d
       -0.014011236 0.08785232 0.021723751 0.102631465
0003a0 6c c7 df bd d4 61 74 bd d6 a7 ce 3b 6a 4c 30 3d
       -0.109267086 -0.05966361 0.0063066287 0.043041624
0003b0 c7 fb 50 3c 8f b1 99 3d 35 9b 6b 3d e0 8d f8 3c
       0.012755341 0.0750457 0.057521064 0.030341089
0003c0 26 ad a9 ba c6 dd ae bd e8 49 95 3d 0b 7b 8c bd
       -0.0012945279 -0.08538394 0.07289487 -0.06859406
0003d0 ec 7e c3 3d d3 52 89 3d 94 4f b5 3d 8e a5 37 bc
       0.09545693 0.067052506 0.08853069 -0.011208905
0003e0 fe 48 b6 3d 08 fc 25 bd 76 2e f0 3d 30 af f4 3c
       0.08900641 -0.04052356 0.11727612 0.029868692
0003f0 76 63 cb 3d 74 29 58 bd 42 dd cf bd 51 0e 45 3d
       0.0993108 -0.052773908 -0.101496235 0.048109356

weight_hh_l1 f4 [220, 55]
000000 3f 8c d0 bb 1c de d2 bb b7 b6 c2 bd 16 60 d6 3a
       -0.006364375 -0.006435169 -0.09507506 0.001635554
000010 04 d5 00 3c 20 45 cc bd af e7 0f bd 73 7f 36 bd
       0.007863287 -0.09974122 -0.03513306 -0.04455514
000020 21 a0 69 bd c7 64 96 3b 06 37 ff bc f1 60 6e bc
       -0.057037476 0.0045896503 -0.031154167 -0.01454948
000030 e9 06 7c bd 0b 43 ef bd 69 8a ff bc 5d c9 cb 3d
       -0.061530028 -0.11682709 -0.031193929 0.099505164
000040 e0 ba 60 bd a9 a6 ec bd 00 da 82 3d be 8e 36 bd
       -0.054865718 -0.115552254 0.063892365 -0.044569723
000050 5c d4 68 bd 8d ca a5 3d ba 67 09 be 86 47 de bd
       -0.056843147 0.08095274 -0.13418475 -0.10853486
000060 5d 3b 81 bd 69 bc c2 bd d4 b2 3b 3d 3f 27 68 3d
       -0.06310151 -0.09508593 0.04582484 0.056678053
000070 ee 96 d0 bc 9f 1a e0 3d 14 a8 08 3e e6 9a 63 3d
       -0.025462594 0.109425776 0.13345367 0.055567645
000080 b8 aa 8c bc 01 32 33 3c f8 d3 01 3e f1 b3 27 3d
       -0.017171249 0.010937215 0.12678516 0.04094309
000090 bb 84 8f 3d 6c 2f 98 bd ee f7 29 bd 8b c6 15 bd
       0.07007738 -0.0743092 -0.04149621 -0.0365663
0000a0 e8 eb e8 bd 72 0d fd 3c 9c 71 10 3c dd 44 bf 3d
       -0.113731205 0.0308902 0.008816149 0.093393065
0000b0 85 ae 5d 3d 92 86 e3 3c 22 34 83 bd 04 38 d5 3d
       0.054121513 0.027774129 -0.06406428 0.10411075
0000c0 3b d4 03 be 38 27 db 3d 68 a5 9d 3d 61 50 e0 3d
       -0.12873928 0.1070084 0.07697564 0.10952831
0000d0 85 a3 95 3d bc 8b 0e 3e dc eb 0b bd a8 4a da ba
       0.073065795 0.13920492 -0.03416048 -0.0016654329
0000e0 cf 29 c3 bd 2c 3f a6 bd 55 13 ca bd 8f d0 d1 bd
       -0.09529459 -0.08117518 -0.098669685 -0.102448575
0000f0 dc 44 f0 3d 75 e7 01 bd bc 8e 80 bd 84 8f 09 bd
       0.11731884 -0.031714875 -0.062772244 -0.033584133
000100 77 fc e5 bd 6d d2 ae 3d 95 f4 3d bd 25 02 4c 3d
       -0.112297945 0.08536229 -0.04637583 0.049806733
000110 cb a5 49 bb 78 0c 0d 3d 2e 23 73 bd c0 8e 76 3c
       -0.0030768986 0.03443572 -0.05935972 0.015048683
000120 14 dd ca 3d 4c 1c 53 bd ae 25 33 3c d8 db c2 3d
       0.099054486 -0.051540658 0.0109342765 0.09514588
000130 50 6c b4 3c a0 99 97 bc 6a 76 3a bd 6d b2 49 bd
       0.022024304 -0.018505871 -0.045523085 -0.049242426
000140 bb 76 13 be 1a 87 d6 bd d4 38 28 bd 7f 00 e8 bd
       -0.14400761 -0.10474987 -0.04106982 -0.113282196
000150 c5 9b 07 3e c0 59 ee 3b bc a9 93 bd 62 21 63 bd
       0.13243015 0.0072738826 -0.07210109 -0.05545176
000160 fa 33 21 bd 5d b8 19 bd 4e 8f 66 3d 29 7e 8e 3c
       -0.03935621 -0.03752934 0.05628901 0.017394142
000170 e4 57 0e 3d 09 b3 af 3d 0c e4 3f 3d 19 5e 75 3d
       0.034751788 0.0857907 0.04684834 0.05990419
000180 5c a5 9e bd bc 78 97 3d 5b 3c 05 3d ff 76 20 3d
       -0.077463835 0.07396075 0.032528263 0.039175984
000190 e4 6a 2d bd ae 16 d7 bb 63 4d 9c 3d e9 fd 86 3d
       -0.042338267 -0.006563983 0.07631948 0.06591398
0001a0 a1 33 6b 3d 0c 80 f6 bd 24 88 e9 bc bc 84 fd bc
       0.057422284 -0.12036142 -0.0285073 -0.030947082
0001b0 84 d5 82 3c 6a d7 8c 3b b8 ac a8 3d d1 c4 e0 3d
       0.015970953 0.0042981403 0.082360685 0.1097504
0001c0 d4 17 d5 3d ee 3c 6c 3d b0 21 eb 3d 14 00 ea 3d
       0.104049355 0.057675295 0.11481035 0.11425796
0001d0 91 80 07 3e bb b3 e9 bd 17 21 78 bd 45 1a de 3d
       0.13232638 -0.11411234 -0.060578432 0.10844854
0001e0 cc 3d c8 bd d2 e6 d3 bd c8 08 f0 3b 93 51 9a 3d
       -0.09777412 -0.1034676 0.0073252656 0.0753509
0001f0 9a 1a 07 bd 2a 68 f9 bd 22 30 d7 bb 8e ec 6a 3d
       -0.032984354 -0.12178071 -0.006567017 0.057354502
000200 8d 93 ae 3d 43 a4 11 be 01 4e b8 bd b9 c8 98 bd
       0.08524237 -0.14222817 -0.08999253 -0.0746016
000210 5b 6d 64 bd f1 96 06 bd 38 36 cd bd 2a 8b 16 3c
       -0.055768352 -0.032858793 -0.10020107 0.009188453
000220 e1 2c ff 3d ab 0f f0 3d 10 35 0a 3e 55 c4 a3 bd
       0.12459732 0.117217384 0.13496804 -0.07996432
000230 ee 76 2d bd 85 35 b0 3d 5d 41 dd 3d a0 c1 5e bd
       -0.04234975 0.08603958 0.10803483 -0.054383874
000240 aa b6 b4 3d 32 a5 a4 3d 62 7d 93 bd ec 64 a0 bd
       0.08823903 0.08039321 -0.07201649 -0.07831749
000250 a3 7e b7 bd 98 7c c0 3d 4c d8 f6 3d 68 ad e5 3d
       -0.08959701 0.09398764 0.12052974 0.11214715
000260 a7 5f 05 bc 0c e4 d7 bd a3 d4 ea bd 73 4b a5 bd
       -0.008140481 -0.10541543 -0.114663385 -0.080710314
000270 5e 04 ba bd b0 b7 3b 3d 00 bd f9 3d 5c 38 f1 bc
       -0.09082864 0.045829475 0.12194252 -0.02944582
000280 9e 12 a7 3b 3e a6 a8 3d 29 b3 98 bd 61 17 58 bd
       0.005098655 0.08234833 -0.07456047 -0.05275667
000290 53 81 90 3d ef f1 92 3d 59 d3 01 3e 1d 89 65 bc
       0.07055917 0.071750514 0.12678279 -0.014009741
0002a0 4e 2b cf bd 9a fc bd 3b ac f1 06 be 27 74 cc bb
       -0.101156816 0.0057979347 -0.13178128 -0.0062394324
0002b0 35 65 d1 3d 94 0e 27 bd 64 95 ed bc c9 fa ca 3d
       0.10224382 -0.040785387 -0.029001899 0.09911115
0002c0 55 46 01 be d2 d5 cc bd df 3a 0e be a5 71 11 be
       -0.12624486 -0.100017205 -0.13889645 -0.14203508
0002d0 d7 b9 66 bd 2f 50 e9 3d e5 37 05 3e 52 68 9d bd
       -0.056329574 0.11392247 0.13009603 -0.07685913
0002e0 9e c9 0c be fc 90 11 3d 45 e0 5f 3d 03 06 82 3d
       -0.13748786 0.03553866 0.05465724 0.06348803
0002f0 98 79 fa 3d 1a c9 31 bd 69 f3 32 3d 29 8f 9e 3c
       0.122302234 -0.043404676 0.043689165 0.019355373
000300 21 3d fe bc 87 69 ac 3d f1 6f 9e bd 20 be dd 3d
       -0.031035008 0.08418565 -0.07736195 0.10827279
000310 5f 7d ac 3c ee 5c ca 3d 79 af d7 3d cc 17 b3 3c
       0.021055875 0.09881006 0.10531516 0.021861933
000320 69 51 25 3b 84 a6 87 3c ca b4 0a 3e 14 79 cb bd
       0.0025225526 0.016558893 0.13545528 -0.09935203
000330 59 dc c0 3d 72 b2 e9 bd e4 65 ba bd 5d f2 0d 3e
       0.09417028 -0.11410989 -0.09101465 0.13861986
000340 92 8e b4 bc ff 58 ab bd 4f 90 c9 3d 1a 7f d3 ba
       -0.02204064 -0.08366584 0.09841978 -0.0016135902
000350 e9 5a b3 3d 4b 9d 07 3e 37 3e 9b bd 57 34 7c bd
       0.08757574 0.13243596 -0.07580226 -0.061573353
000360 49 a4 02 3e ea 2b c7 3d 8f 25 58 bd 9f 3e cb 3d
       0.12757982 0.09725173 -0.052770194 0.099240534
000370 ce a6 af bc f8 13 9d 3d 2e 0a f7 bd 5f 08 ef bc
       -0.021441843 0.07669824 -0.120624885 -0.029178796
000380 ba a6 e3 3d 41 35 9f 3d 4c 17 d9 3d cc 45 46 bc
       0.11115785 0.07773829 0.10600147 -0.012101602
000390 2d 2c a4 bd d4 bd 61 3d 78 62 e2 3d 42 69 fa 3d
       -0.08016238 0.055112675 0.11053938 0.122271076
0003a0 31 b8 6d 3d 8a 73 ef 3c 83 b2 f1 3d 32 2f a7 3d
       0.058036987 0.029229898 0.118016265 0.08163299
0003b0 a7 69 c4 3d 1c 6f fb 3d 94 b8 e4 bc c5 61 d6 bd
       0.09590464 0.12277052 -0.027920045 -0.10467867
0003c0 8d 07 94 3d 71 e2 6e bd 4a 62 54 3b a4 21 eb bd
       0.07228003 -0.05832142 0.0032407218 -0.11481026
0003d0 c4 55 2d 3d 0d d8 80 bd 25 b4 21 3d aa 77 b7 bc
       0.04231812 -0.062912084 0.03947844 -0.022395927
0003e0 f8 95 2c bd 5f cb 8d 3c 11 86 3b bc 0e ee fe 3d
       -0.04213521 0.017308889 -0.011445538 0.12447749
0003f0 1b 83 df 3d bf 4c fa bb 68 0d 4c 3d e9 1c 12 be
       0.10913678 -0.0076385434 0.049817473 -0.14268841

bias_ih_l1 f4 [220]
000000 c5 ae b7 bd 90 13 ad bd ed 54 90 3c a8 dd f7 3b
       -0.089688815 -0.08450997 0.01761862 0.0075642653
000010 6e a0 6c bd 43 0b d2 3c 99 9b d0 bc 9a ef a1 bd
       -0.057770185 0.025640136 -0.02546482 -0.079070285
000020 de 92 dd 3d 4d 8e 5c bd 42 f3 78 bd da 5b 91 bd
       0.10819028 -0.053846646 -0.060778864 -0.070975974
000030 58 e1 4d 3c da 38 bb bc 74 6f 2f 3d 9d 9e e1 3d
       0.012565933 -0.022854257 0.0428309 0.11016581
000040 30 49 10 3e 30 60 e5 3d 79 7a e5 bd b7 ca fb 3d
       0.14090419 0.11199987 -0.112050004 0.12294524
000050 da 94 c9 bc 7a 39 ec bc 7a 15 ca 3c 10 b3 e7 bd
       -0.02460711 -0.028836 0.024668444 -0.1131345
000060 1e 80 55 bd 93 34 f2 3b a4 70 a1 bd 64 81 03 3e
       -0.052124135 0.0073915212 -0.078828126 0.12842327
000070 19 9a f2 3b df e0 e7 3d 67 5e 3e bd 8e 79 a6 bd
       0.007403624 0.11322188 -0.046476748 -0.081286535
000080 f9 ab fe bd bd b1 8e bd da 00 0c bd be 21 b2 3d
       -0.12435145 -0.06967495 -0.0341805 0.08697842
000090 03 0a aa 3c dc a0 ba 3c 79 4f aa bd ad 05 41 3d
       0.020756727 0.022781782 -0.083159395 0.047124553
0000a0 b0 5f f2 3d c5 e0 d9 3d d2 38 87 3d 72 57 06 3e
       0.11834657 0.106385745 0.066026345 0.13119295
0000b0 98 74 26 3c 66 ee c6 3d 1f b7 4b 3d 13 dc 2f 3c
       0.010159634 0.0971344 0.049735185 0.010733622
0000c0 67 f3 21 3c 12 a8 e7 3d 6e 1a 58 bd e7 66 9e bc
       0.009884692 0.11311354 -0.05275958 -0.019336177
0000d0 88 4b 52 bd 02 be a1 bd 3f c5 d2 3d 21 1e 53 3d
       -0.051341563 -0.07897569 0.10291528 0.051542405
0000e0 68 96 8a bd 7e 2e 56 3d 4d 34 8e 3c fe b3 c0 3c
       -0.06766969 0.052290432 0.017358923 0.023523327
0000f0 94 66 d3 bd 3b 05 b1 3d 03 de 83 3d 6e e4 f2 bd
       -0.103222996 0.08643576 0.0643883 -0.11859976
000100 80 7a b2 3d fd 15 1b 3d 36 7c 83 bc e5 fa 8b 3d
       0.08714771 0.037862767 -0.01605044 0.06834964
000110 21 83 88 ba d7 d2 92 3c 7d 69 a8 3c 0b 84 b9 3d
       -0.0010415056 0.017922802 0.020558113 0.09058388
000120 55 57 09 3e ff 35 00 be 4b 2f e3 3d 40 e8 f0 3c
       0.13412221 -0.12520598 0.11093005 0.02940762
000130 f4 a2 97 3d bc 9b ec bc 51 7a 88 3d 00 65 18 3d
       0.07404128 -0.028882854 0.06663955 0.037205696
000140 33 aa c8 3d 1b 09 9b bd aa a4 dd 39 c2 34 0b bb
       0.09798088 -0.07570096 0.0004227509 -0.0021241163
000150 3e 76 e8 3d 7a f1 fe bd dc 5b ea 3d 2a 99 52 3d
       0.11350678 -0.12448402 0.11443302 0.0514156
000160 9e 0e eb 39 33 80 de bd bc f0 b1 3c 71 1c 90 3c
       0.00044833584 -0.10864296 0.021721236 0.017591687
000170 16 2b a1 bd 8f 7b e0 b9 68 bc dc 3d b5 f8 b2 3d
       -0.07869546 -0.00042816668 0.10778123 0.08738843
000180 36 af 01 be 55 86 40 3d 1b 52 fb bc 7d 1e 62 3b
       -0.12664494 0.04700311 -0.0306788 0.0034503036
000190 59 12 a7 bd 31 7f 9f 3d 5d b6 98 bd c4 ad 88 3d
       -0.081577964 0.07787932 -0.07456658 0.06673768
0001a0 fe 93 db 3d bf 5f 59 bd 5b 8b fb 3d 1a fc be 3d
       0.10721587 -0.053069826 0.12282439 0.09325428
0001b0 88 24 c8 bc 56 f2 0a be 75 24 0c be 3f b5 60 3b
       -0.024431482 -0.13569006 -0.13685782 0.0034287719
0001c0 cd 4b a5 bd 68 8a 98 3d d5 8f 09 be 89 6b 83 bd
       -0.080710985 0.07448274 -0.13433774 -0.06416995
0001d0 02 50 e3 3d 62 4f 20 3c 24 cb 5e bd c6 e4 46 3c
       0.11099245 0.009784551 -0.05439295 0.012139505
0001e0 25 e7 b7 bd cd 90 cd bd 9f c0 b7 3c 70 83 83 bd
       -0.08979634 -0.10037384 0.022430716 -0.06421554
0001f0 18 8e 5f bd b0 40 cf 3c 1c 83 14 3e 94 83 8a 3d
       -0.05457887 0.0252994 0.1450314 0.06763378
000200 9d 1f 19 bd eb 5c e8 bd 9e 8d f5 3d 9f 27 c1 3a
       -0.037383664 -0.11345848 0.11989902 0.001473654
000210 2e f6 0c bc 96 30 65 3d 67 aa 98 bc bd 94 5e bd
       -0.008603616 0.05595454 -0.018635942 -0.054341067
000220 a8 e8 17 3d af 15 f8 bd 8c 4d 4c 3d 3d f6 98 3c
       0.037087113 -0.12113511 0.049878642 0.018672103
000230 89 4a 7c 3d ac 21 39 bd 34 32 ab 3c c4 01 d9 bd
       0.06159452 -0.045198128 0.020897962 -0.1059604
000240 cf a8 b7 bd 70 c7 9a bd 59 f9 ad 3d 17 f3 94 3d
       -0.089677446 -0.07557571 0.08494825 0.07272928
000250 e3 54 13 3e b1 2e 9f bd a0 c1 0b bc 77 09 b4 bd
       0.1438785 -0.077725776 -0.0085300505 -0.08790868
000260 de 23 c7 3d 6c 09 76 bd c3 b1 88 3d a9 e9 c8 bd
       0.09723638 -0.06006758 0.0667453 -0.09810192
000270 f5 e8 fe 3c 1d 03 e7 3d 09 b9 62 3d 0a ce c9 bc
       0.031116942 0.11279891 0.055352245 -0.02463438
000280 a9 44 44 3b bd 4b 9f 3d 3f 11 85 bc b5 b5 79 3d
       0.0029948151 0.07778118 -0.016243575 0.060964305
000290 fc e6 a3 bd 3a 24 c7 bd 77 90 6e 3d 54 b1 06 3d
       -0.08003041 -0.097237065 0.05824324 0.032883957
0002a0 11 a1 c4 3d 31 70 f3 bd bd a4 96 bd e7 d3 cc 3b
       0.096010335 -0.11886633 -0.0735564 0.0062508467
0002b0 54 09 bb bd 9e 1b 04 be f2 b7 91 3d df aa 7c bd
       -0.091326386 -0.1290116 0.07115163 -0.061686393
0002c0 d3 22 12 3d 55 bf a2 bc 78 29 7c bd 39 b3 44 bd
       0.035677742 -0.019866625 -0.061562985 -0.048022483
0002d0 00 15 7b 3b 15 42 e3 3c d9 50 8b bd d1 9d f7 3c
       0.0038312078 0.027741471 -0.0680253 0.03022662
0002e0 fa b2 59 3d 5e b9 3f 3a 25 f0 01 3e b6 98 68 3c
       0.0531492 0.00073136936 0.12689264 0.014196565
0002f0 8a 0e 2f 3d 8d b4 09 be 75 7c 7b 3d 01 fb 55 3d
       0.042738475 -0.13447781 0.06139799 0.05224133
000300 24 6e e5 bd 7c fd 9a 3d fd 61 a4 3d 8b 7f ab bd
       -0.11202648 0.075678796 0.08026502 -0.08373936
000310 70 54 31 bd 1a ce d0 3d 32 1b 02 be e8 e9 32 bd
       -0.043293417 0.10195561 -0.12705687 -0.0436801
000320 df f3 b3 3d 8d fc 03 3e e9 12 85 bd 28 ab c9 3d
       0.08786749 0.12889309 -0.064977475 0.098470986
000330 88 8e 88 3d 13 d2 8d bd 3b 82 f4 3d b1 64 0f 3e
       0.06667811 -0.06924834 0.11938902 0.14003254
000340 a3 84 81 3d 64 94 fc 3d ba c5 e5 bc 62 4f fd bd
       0.063241266 0.12332991 -0.028048385 -0.12368657
000350 83 0b 85 bd ca 66 c4 3a a1 49 9e 3d 44 34 0e 3e
       -0.06496336 0.0014984247 0.07728887 0.13887125
000360 93 fc 9a 3c 8a ea 9a 3d 09 ba 15 bd e2 c2 01 3d
       0.018919265 0.07564266 -0.03655437 0.031679995
